model.pth (torch_old, 28417 bytes, 6 tensors)

fc1.weight f4 [64, 37]
0	0xbda03522	-0.07822634
1	0xbcd88f80	-0.026435614
2	0x3ceec8fd	0.029148573
3	0xbe54a2be	-0.20765206
4	0xbd9e5d47	-0.07732635
5	0xbd856c83	-0.065148376
6	0x3d890304	0.06690028
7	0x3e639b2c	0.22227162
8	0xbdcfa846	-0.101395175
9	0xbd8672ea	-0.06564887
10	0x3e52178f	0.205168
11	0xbef540ed	-0.47901097
12	0xbe11c0c5	-0.14233692
13	0xbea7ee0d	-0.32798806
14	0xbf7cdbb8	-0.98772764
15	0xbd3c2efd	-0.04594325
16	0x3dcad77b	0.09904381
17	0x3ddaefd5	0.106902756
18	0xbe230300	-0.15919113
19	0xbe080b7b	-0.1328563
20	0x3e16c157	0.14722191
21	0x3c617974	0.013761867
22	0xbd3636cf	-0.044485863
23	0x3e63c3d7	0.22242676
24	0x3dd9da57	0.10637348
25	0xbe12b329	-0.14326157
26	0x3d9eb1f3	0.07748785
27	0x3dd0ec66	0.102013394
28	0xbdedfd8e	-0.11620627
29	0xbd98ff33	-0.074705504
30	0xbc12b4eb	-0.008954267
31	0x3db539d2	0.08848919
32	0xbe02c7b3	-0.12771492
33	0xbe34bcc8	-0.1765014
34	0xbe4a1b9e	-0.19737098
35	0xbbce9a5e	-0.006305023
36	0xbcd77434	-0.026300527
37	0x3dece4bf	0.11567067
38	0x3da09719	0.078413196
39	0x3dd7be70	0.1053437
40	0x3dd732a1	0.105077036
41	0xbd02a50f	-0.031895693
42	0x3e548f7a	0.20757857
43	0xbe8c35ea	-0.27384883
44	0xbea4cb56	-0.32186383
45	0xbeb261df	-0.34840295
46	0xbf583ffa	-0.8447262
47	0x3da6af17	0.081388645
48	0xbd062c87	-0.03275731
49	0xbd8c37ea	-0.06846602
50	0x3e37ca6d	0.17948313
51	0x3dfe9d55	0.124323525
52	0x3e16f6b9	0.14742555
53	0xbdb24529	-0.087045975
54	0x3db2ad2e	0.08724438
55	0xbcb57f65	-0.022155473
56	0xbca85c90	-0.02055195
57	0xbe1b23fa	-0.15150443
58	0xbc4c89c4	-0.012484018
59	0xbca910b1	-0.020637842
60	0xbdb0889e	-0.08619808
61	0x3db12309	0.086492606
62	0xbc9918cf	-0.018688587
63	0x3d4e11df	0.050310012
64	0xbd84fea0	-0.06493878
65	0x3e19d76f	0.15023588
66	0x3e0825c5	0.13295658
67	0x3d2b662e	0.041845493
68	0x3e48d05d	0.19610734
69	0x3e013dfc	0.12621301
70	0x3ce4f77b	0.02795004
71	0xbdd5eff4	-0.10446158
72	0x3c25ac33	0.010111856
73	0x3c1ba531	0.009499834
74	0x3e2c29cc	0.16812819
75	0xbdb77592	-0.08957972
76	0x3dc0b6ff	0.09409904
77	0x3e229832	0.1587837
78	0x3e9f3395	0.3109404
79	0xbeaa7d8c	-0.3329891
80	0xbe3285f6	-0.17433915
81	0x3e817d93	0.25291118
82	0x3dcfdf55	0.10150019
83	0xbe91770b	-0.28411135
84	0x3ac1af04	0.001477689
85	0x3d877cdb	0.06615611
86	0xbc9c28a9	-0.019062357
87	0xbc116ebb	-0.008876498
88	0x3e18b916	0.14914355
89	0xbe0b8f05	-0.13628776
90	0xbd49b68d	-0.04924636
91	0x3e33d7d3	0.17562799
92	0x3e351cfd	0.1768684
93	0x3c76f972	0.015074121
94	0xbc51e80e	-0.012811674
95	0xbe353bda	-0.17698613
96	0x3e3ad3b4	0.18244821
97	0xbdd44a70	-0.1036576
98	0x3c9fd2e2	0.019509736
99	0xbe8282cc	-0.25490415
100	0x3d9c57c8	0.076339304
101	0x3e495642	0.19661811
102	0x3d6e4cb3	0.058178615
103	0xbe2e56a8	-0.17025244
104	0xbe7b9d0a	-0.24571624
105	0xbdd392bd	-0.103307225
106	0x3c42af67	0.0118826395
107	0xbd53dfef	-0.05172723
108	0xbca0a31c	-0.019609027
109	0x3d5da0b0	0.05410832
110	0xbc46978f	-0.012121095
111	0x3de8a95e	0.11360429
112	0xbe8fee77	-0.28111622
113	0x3e402db9	0.18767442
114	0xbdcd9b1d	-0.10039351
115	0xbf0d5b09	-0.55217034
116	0xbe67c2c7	-0.22632895
117	0x3dd62267	0.104557805
118	0x3db988b8	0.0905928
119	0xbe49260c	-0.1964342
120	0xbe40f3f0	-0.18843055
121	0xbddf4e63	-0.10903623
122	0x3c4926b6	0.012277296
123	0xbd74601d	-0.059661973
124	0xbb0022f1	-0.0019552077
125	0xbd580d33	-0.052746963
126	0xbe178f86	-0.14800844
127	0xbe9604f8	-0.29300666
128	0x3a98acee	0.0011648217
129	0xbcae0fad	-0.02124771
130	0xbed92552	-0.42411286
131	0x3d987148	0.07443482
132	0xbe5ab892	-0.2135947
133	0xbdbf0530	-0.09327161
134	0x3e2c2b02	0.16813281
135	0xbdfe9d9d	-0.12432406
136	0xbd4e6e9b	-0.05039845
137	0xbd5591ba	-0.05214093
138	0x3e03e745	0.12881191
139	0xbd8238b1	-0.06358469
140	0x3b8123c8	0.003941033
141	0x3dbe6694	0.09296909
142	0x3e38e826	0.18057308
143	0xbdb4944e	-0.088173494
144	0xbe003250	-0.12519193
145	0xbdd13a77	-0.102162294
146	0x3e9608a4	0.29303467
147	0x3b91317e	0.0044309488
148	0x39b034da	0.00033608713
149	0xbe2bddb9	-0.16783799
150	0xbe7fbd3e	-0.24974534
151	0xbdda2d6e	-0.10653196
152	0x3dca1b28	0.09868461
153	0x3a32962e	0.00068125397
154	0x3d7be0dd	0.061493743
155	0xbca75449	-0.020425932
156	0xbccdf878	-0.025142893
157	0x3dfd2cae	0.123620376
158	0x3de2c2b7	0.11072295
159	0xbd885d4f	-0.06658422
160	0xbe1f28ec	-0.15542954
161	0xbe52a8a2	-0.20572141
162	0xbe846c69	-0.2586396
163	0xbd866e66	-0.065640256
164	0xbdcd9b8c	-0.10039434
165	0xbd604370	-0.054751813
166	0xba900165	-0.0010986744
167	0x3e25e892	0.16202
168	0x3d32c4ae	0.0436446
169	0xbe82a6b0	-0.25517797
170	0xbdcf8336	-0.101324484
171	0x3d542616	0.051794134
172	0x3f0a34b8	0.5398669
173	0xba9bed1e	-0.0011896228
174	0xbc387265	-0.0112577425
175	0xbd88dcf1	-0.06682766
176	0x3da8a051	0.08233703
177	0x3dde14f5	0.10843841
178	0x3dfa04f7	0.12207978
179	0xbe4c508f	-0.19952606
180	0xbdaaff7f	-0.08349513
181	0x3e248a57	0.16068397
182	0x3ef4d6ed	0.47820225
183	0xbd10781c	-0.035270795
184	0x3c4b2eb3	0.012401271
185	0x3bd60f76	0.006532605
186	0x3d461375	0.0483584
187	0x3b38c478	0.0028193276
188	0x3d28cca3	0.04121078
189	0x3da27300	0.07932091
190	0x3ebdcd15	0.37070528
191	0xbe09600e	-0.13415548
192	0xbe539239	-0.20661248
193	0xbf023c21	-0.50873
194	0xbfd6f499	-1.6793395
195	0xbcedd13d	-0.029030437
196	0x3c1e711e	0.009670524
197	0xbcad2c76	-0.021139365
198	0xbd7eed71	-0.06223816
199	0xbd225dbf	-0.039640184
200	0x3d28ab91	0.041179243
201	0x3dde88a0	0.10865903
202	0xbdaf326e	-0.085545406
203	0xbc02a596	-0.007974049
204	0xbdb7b427	-0.08969908
205	0x3e15438d	0.1457655
206	0x3d873e6b	0.06603702
207	0x3e00b05d	0.12567277
208	0x3df981bd	0.12182949
209	0x3e441c80	0.19151497
210	0xbcf0684c	-0.029346608
211	0x3c707c72	0.014678108
212	0x3d8adab2	0.06779994
213	0x3de5fa28	0.11229354
214	0x3d926949	0.07148988
215	0x3d3a4e49	0.045484815
216	0xbd087d39	-0.033322547
217	0x3d0f89b9	0.035043452
218	0x3dc7b9fd	0.09752271
219	0x3d3209e0	0.04346645
220	0x3c5a8362	0.013336988
221	0xbbb6cc2a	-0.0055785375
222	0xbda6a1f7	-0.08136361
223	0xbe3540de	-0.17700526
224	0x3de2a219	0.11066074
225	0x3d816ee1	0.063199766
226	0x3e00b09f	0.12567376
227	0xbe88ee53	-0.26744327
228	0xbd39d6f9	-0.04537103
229	0x3db927bf	0.09040784
230	0x3d7151b1	0.058915798
231	0x3eb7f67c	0.3593024
232	0xbdebf971	-0.115221865
233	0x3e3967b9	0.18105973
234	0x3c07d530	0.008290574
235	0x3d4a43a6	0.04938092
236	0x3d30cad8	0.043162197
237	0xbdc8441d	-0.097786166
238	0xbe4cce67	-0.20000611
239	0xbd495705	-0.049155254
240	0x3da25a30	0.07927358
241	0x3ee33dd9	0.44383124
242	0xbd82fed8	-0.06396264
243	0xbb403909	-0.002933087
244	0xbdaaea14	-0.08345428
245	0xbd8d1279	-0.06888289
246	0xbd162e58	-0.03666529
247	0xbe28d489	-0.16487326
248	0xbd84c2df	-0.06482481
249	0xbce0588f	-0.027385978
250	0xbe305aa5	-0.17222078
251	0x3e976bf2	0.29574543
252	0x3bf71fc3	0.007541628
253	0x3c297519	0.01034286
254	0xbd43aa2c	-0.04776971
255	0x3d4999bf	0.04921889

fc1.bias f4 [64]
0	0x3e3162e6	0.17322883
1	0xbc48dce1	-0.012259693
2	0xbe3565a6	-0.17714557
3	0xbdb63c45	-0.08898214
4	0x3e17487c	0.14773744
5	0x3cef1f2e	0.029189672
6	0xbe149233	-0.14508896
7	0x3d2f61e8	0.04281798
8	0xbc20891b	-0.0097983135
9	0xbde4176d	-0.111372806
10	0x3e0ac0f5	0.1355017
11	0x3e31b595	0.17354424
12	0x3dc483a4	0.09595421
13	0x3df26f5b	0.118376456
14	0xbe3126aa	-0.17299905
15	0xbda2f259	-0.079563804
16	0x3cb1f3d2	0.021722708
17	0x3cb9d01c	0.022682242
18	0xbcdc8113	-0.026917016
19	0xbe3c7cec	-0.18407029
20	0xbdfb1186	-0.12259202
21	0xbb0a19e9	-0.0021072573
22	0xbbb1e97c	-0.005429445
23	0xbdffd444	-0.12491658
24	0xbe162066	-0.14660797
25	0x3d28029b	0.04101811
26	0xbd950e54	-0.072781235
27	0xbe23431f	-0.15943573
28	0x3e036934	0.128331
29	0x3e354bf9	0.17704763
30	0xbd3ede4a	-0.04659871
31	0xbe23ce9d	-0.15996785
32	0x3d9bcd82	0.07607557
33	0xbbfd6fd3	-0.0077342778
34	0xbe1a8623	-0.15090232
35	0xbb2021f9	-0.0024434312
36	0xbda46eca	-0.08028944
37	0x3d8fadac	0.07015547
38	0xbce6bdf7	-0.028166754
39	0xbd8176f2	-0.06321515
40	0xbdaf3313	-0.085546635
41	0x3cb1e18e	0.021713998
42	0xbd8d01ee	-0.06885134
43	0x3e39fc3d	0.18162628
44	0x3d18a4ce	0.037266545
45	0xbd9a0c23	-0.07521846
46	0xbc6e3734	-0.014539529
47	0xbe40bce8	-0.18822062
48	0xbda6fdb2	-0.08153857
49	0x3de076ba	0.10960145
50	0xbe3cb838	-0.18429649
51	0x3d84a536	0.06476824
52	0x3c4cd839	0.012502723
53	0xbd851784	-0.06498626
54	0xbe2d012f	-0.16894983
55	0x3c90f84f	0.017696528
56	0x3db6deec	0.08929238
57	0xbd82ed8c	-0.06392965
58	0xbda4b756	-0.08042781
59	0xbe27a0bf	-0.16369914
60	0xbc1170d0	-0.008876994
61	0xbd55a4fd	-0.0521593
62	0x3dc6fb5b	0.09715911
63	0x3d38b16f	0.04509109

fc2.weight f4 [64, 64]
0	0x3debb2a5	0.11508683
1	0x3d9ed1d7	0.077548675
2	0x3e135700	0.14388657
3	0x3c14e0f5	0.009086837
4	0x3e070a93	0.13187627
5	0xbe1d76c7	-0.15377341
6	0xbdcc4d79	-0.09975714
7	0xbba67506	-0.0050798682
8	0xbe89de1f	-0.26927277
9	0xbdbd5c92	-0.09246172
10	0x3e0c5de4	0.13707691
11	0xbda678f2	-0.08128537
12	0xbd646973	-0.055764627
13	0x3dafb007	0.085784964
14	0x3d9db938	0.07701343
15	0x3bc0258e	0.005863852
16	0xbde76103	-0.112978004
17	0xbe4230f9	-0.18963994
18	0x3d28e786	0.041236423
19	0x3dafda3f	0.08586549
20	0xbdb9d492	-0.09073748
21	0xbdec7f28	-0.11547691
22	0xbdfd255d	-0.12360642
23	0xbe6ac1d6	-0.22925505
24	0x3e2320b4	0.15930444
25	0xbdee487d	-0.1163492
26	0x3e812e49	0.25230625
27	0x3e9fb9b9	0.31196383
28	0x3e5d5aa7	0.21616612
29	0xbe2ce5a5	-0.16884477
30	0xbe19d34a	-0.15022007
31	0xbe9a76a7	-0.3016865
32	0x3d07c9f0	0.033151567
33	0x3db648cb	0.08900603
34	0xbd47886b	-0.048714083
35	0xbe81d8f8	-0.25360847
36	0xbe3a4135	-0.18188937
37	0x3e2fb66e	0.17159435
38	0x3e942d5d	0.2894086
39	0xbda9569f	-0.08268475
40	0xbe20b1de	-0.15692851
41	0x3d95014a	0.072756365
42	0x3e0cf9ac	0.13767117
43	0xbd72735d	-0.05919205
44	0xbd2ab150	-0.041673005
45	0x3d85efcf	0.065398805
46	0xbcd0c3e2	-0.02548403
47	0xbe0dc62c	-0.13845128
48	0xbe92c2d0	-0.28664255
49	0x3d870be4	0.06594065
50	0xbdbcdd70	-0.09221923
51	0xbd3ed6bc	-0.046591505
52	0xbe4a3277	-0.19745813
53	0x3ccc5b79	0.024945961
54	0xbe77c55f	-0.24196385
55	0x3bfddb94	0.007747123
56	0xbd88187f	-0.06645297
57	0xbe208a1a	-0.15677682
58	0xbe5bbe12	-0.21459225
59	0x3d9096a3	0.07059982
60	0xbd38c1e2	-0.045106776
61	0x3e7e8c04	0.24858099
62	0xbda50f4a	-0.08059557
63	0x3c47baa6	0.012190497
64	0x3d0957a7	0.033530857
65	0x3e1e19fe	0.15439603
66	0xbe241d08	-0.160267
67	0xb9ebf86a	-0.00045007776
68	0xbccb2b5e	-0.024800953
69	0x3e737172	0.23773745
70	0xbe11d1db	-0.1424021
71	0xbd8c09cb	-0.06837805
72	0xbd4f761f	-0.05064976
73	0xbe0b9481	-0.13630868
74	0x3d559831	0.052147094
75	0x3e31c509	0.17360319
76	0xbdedda22	-0.11613871
77	0x3b9fe4d6	0.0048795743
78	0xbe69f17d	-0.22846027
79	0xbd71b958	-0.05901465
80	0x3e1686a6	0.14699802
81	0xbc0ccd80	-0.008593917
82	0xbe018edf	-0.12652157
83	0x3e0a3c19	0.13499488
84	0x3cfc858c	0.030825399
85	0xbdd67a23	-0.104725145
86	0x3e3d1af2	0.1846731
87	0xbb71d98a	-0.0036903345
88	0x3da7e211	0.081974156
89	0x3e457d8c	0.19286174
90	0xbd1ee93d	-0.038796652
91	0x3cd304e6	0.025759172
92	0x3d3f18da	0.04665456
93	0x3e6b2419	0.22962989
94	0x3e1bb14d	0.15204354
95	0xbd815787	-0.06315523
96	0xbda506fa	-0.08057971
97	0x3dc90bcf	0.098167054
98	0xbe096e43	-0.13420968
99	0x3d9c3ebc	0.07629153
100	0xbd969c00	-0.073539734
101	0xbd6a5b03	-0.0572157
102	0xbe44e286	-0.19227037
103	0xbe4de645	-0.20107372
104	0x3c2a56e5	0.010396694
105	0xbf193519	-0.59846646
106	0xbe2af707	-0.16695796
107	0xbdd03bc9	-0.10167653
108	0x3b3e2217	0.0029012018
109	0xbcc223c4	-0.023698695
110	0xbe15a9ac	-0.14615506
111	0xbd3cd10f	-0.04609781
112	0xbdc5bc83	-0.096550964
113	0xbdc91d83	-0.09820082
114	0xbcc7cc8d	-0.02438953
115	0x3e1ce970	0.15323424
116	0xbd9678e3	-0.07347276
117	0xbe8400b9	-0.257818
118	0xbe472672	-0.1944826
119	0x3d36c54e	0.04462176
120	0xbe30da6c	-0.17270821
121	0x3c14081f	0.009035139
122	0x3e64f92c	0.22360677
123	0x3d87abea	0.06624587
124	0xbe906445	-0.282015
125	0xbc882b21	-0.016622128
126	0xbc28b2ca	-0.010296533
127	0xbeea6b98	-0.45785213
128	0xbe942e40	-0.28941536
129	0xbd9855c7	-0.07438236
130	0xbdbbd22d	-0.09170947
131	0x3db2c421	0.08728815
132	0x3c5f1dde	0.013617961
133	0x3d858f61	0.06521488
134	0x3e06c2a9	0.13160194
135	0xbdbcbaa7	-0.092152886
136	0x3d8bc115	0.06823937
137	0xbee80b57	-0.45321152
138	0xbe813447	-0.25235197
139	0x3d984bbb	0.074363194
140	0x3d5a06ec	0.053229257
141	0xbd8fcb9c	-0.07021257
142	0x3ccea90d	0.025227094
143	0x3dc94ef2	0.09829511
144	0xbdd554c7	-0.104165606
145	0xbe848b9e	-0.2588777
146	0xbde775b8	-0.1130175
147	0xbe22caf3	-0.15897731
148	0xbe174939	-0.14774026
149	0x3d267263	0.04063643
150	0x3ddb374f	0.10703909
151	0xbc1b1b37	-0.009466938
152	0xbc2fdc08	-0.010733612
153	0xbc8321b8	-0.01600729
154	0x3c75a0fe	0.014991997
155	0x3ec61c7e	0.38693613
156	0xbb7fe3cf	-0.0039045697
157	0x3d8cc118	0.06872767
158	0x3d596fb9	0.053085063
159	0x3d3a23a3	0.045444142
160	0xbd540ab8	-0.051768035
161	0xbdf2788f	-0.11839401
162	0xbe6c9e31	-0.2310722
163	0x3d4672c4	0.048449293
164	0x3e57dd66	0.2108055
165	0x3e1b74ca	0.1518127
166	0xbe23dd14	-0.16002303
167	0xbdb07b34	-0.08617249
168	0xbcc7107a	-0.024299849
169	0xbe4b65ec	-0.19863099
170	0xbab9dcea	-0.0014180217
171	0xbdaae515	-0.08344475
172	0xbddf2559	-0.108957954
173	0x3e1c4048	0.15258896
174	0x3d3d1d3d	0.046170462
175	0xbd580994	-0.05274351
176	0x3da11851	0.07865966
177	0x3d905e6c	0.070492595
178	0xbd656cbd	-0.056011904
179	0x3df79068	0.1208809
180	0x3bb218fb	0.005435107
181	0x3ecd6c84	0.40121853
182	0xbe0d2634	-0.13784105
183	0x3bd2b430	0.0064301714
184	0x3d07fd00	0.033200264
185	0xbe568063	-0.20947413
186	0x3dec3530	0.11533582
187	0xbd766fae	-0.0601651
188	0xbe6531ed	-0.22382326
189	0x3e1e4610	0.15456414
190	0x3d88aadb	0.06673213
191	0x3f0eb782	0.5574876
192	0x3dd55e6e	0.10418402
193	0xbe808184	-0.25098813
194	0xbe36a4b0	-0.17836261
195	0x3e5fba56	0.21848425
196	0xbb0dc055	-0.0021629531
197	0xbd8b503b	-0.06802412
198	0xbe13339b	-0.14375155
199	0xbead787d	-0.33880988
200	0xbdf86599	-0.12128753
201	0xbedd9a8c	-0.43281972
202	0x3cb9e893	0.022693908
203	0xbd0af02d	-0.033920456
204	0xbdae5f42	-0.08514263
205	0x3cdcadb3	0.026938295
206	0xbe0d01ed	-0.13770266
207	0xbe884d14	-0.26621306
208	0xbd4f9ffe	-0.05068969
209	0xbe808c74	-0.25107157
210	0x3dc12d39	0.09432454
211	0xbe5e2ba0	-0.21696329
212	0x3e628b52	0.22123459
213	0xbb3d1bee	-0.0028855759
214	0xbd974cce	-0.07387696
215	0x3d19748f	0.037464675
216	0x3da7a856	0.081864044
217	0xbe33aa84	-0.17545515
218	0x3e35a4df	0.17738675
219	0xbe5444ef	-0.20729421
220	0xbdacb248	-0.08432442
221	0xbeb81a99	-0.35957792
222	0xbdd4dc13	-0.10393538
223	0xbeb7c7da	-0.35894662
224	0xbdd4893b	-0.10377737
225	0xbe9a3800	-0.3012085
226	0xbe73fd8d	-0.2382719
227	0xbd522720	-0.051306844
228	0xbed0b474	-0.40762675
229	0x3e05d2f5	0.13068755
230	0x3d770c0f	0.060314234
231	0x3d80547c	0.06266114
232	0xbeb606d5	-0.35552087
233	0x3e37b2e7	0.1793934
234	0x3e1473db	0.1449732
235	0x3cb052b4	0.02152381
236	0xbe92dbc7	-0.28683302
237	0xbe4dc031	-0.20092846
238	0xbe266d00	-0.16252518
239	0xbcad0ffa	-0.021125782
240	0x3d732387	0.059360053
241	0xbe1a1c3b	-0.15049832
242	0xbe71f191	-0.23627307
243	0x3dcf06fe	0.101087555
244	0x3e4e7b24	0.20164162
245	0x3ed6d872	0.4196201
246	0xbe721dd6	-0.23644194
247	0x3d2cfc59	0.042232845
248	0x3d8ff25d	0.07028649
249	0xbeed464a	-0.4634269
250	0xbe1068b5	-0.14102443
251	0x3d2e680f	0.042579707
252	0xbefff831	-0.49994043
253	0x3ea26fd5	0.31725946
254	0xbe143b6f	-0.14475797
255	0x3df270fb	0.118379556

fc2.bias f4 [64]
0	0x3c2c1b28	0.010504521
1	0xbd24530a	-0.040118255
2	0x3de8faa0	0.11375928
3	0xbd1af151	-0.037827794
4	0x3dbe9da2	0.0930741
5	0xbcc4710b	-0.023979684
6	0xbd674f34	-0.05647202
7	0x3e1c7d52	0.15282181
8	0x3e208009	0.15673842
9	0x3ef492c2	0.47768217
10	0x3afef1e0	0.0019450746
11	0x3ddc0e10	0.1074487
12	0x3e794411	0.24342372
13	0xbd1e7f43	-0.038695585
14	0xbd5ad367	-0.053424265
15	0x3d626d18	0.05527982
16	0xbb9088da	-0.004410845
17	0xbd82ed86	-0.0639296
18	0xbda8fd39	-0.082514234
19	0x3e4e6cde	0.20158717
20	0x3e05eca4	0.13078552
21	0x3f0617d8	0.5238013
22	0xbe212f20	-0.15740633
23	0xbdc51912	-0.096239224
24	0xbd9d8094	-0.0769054
25	0xbd5ce7a2	-0.05393184
26	0x3d4c0fe1	0.04981983
27	0xbe161fbd	-0.14660545
28	0xbcf437f6	-0.02981184
29	0x3e89f539	0.26944903
30	0x3c3afaed	0.011412364
31	0xbdb75fd0	-0.08953822
32	0xbd234aa6	-0.039866112
33	0x3e5bcd98	0.21465147
34	0xbc10890f	-0.00882174
35	0x3e43bfdc	0.19116157
36	0xbdfcb590	-0.12339318
37	0xbe2bb546	-0.16768369
38	0x3dd7a2fc	0.10529134
39	0xbe03dda8	-0.12877524
40	0xbe0e7292	-0.13910893
41	0x3f008351	0.5020037
42	0x3ebd02a3	0.36916074
43	0xbd7bc101	-0.06146336
44	0x3dec279d	0.11530993
45	0xbda5299d	-0.08064578
46	0xbcdf182a	-0.027233202
47	0xbdb85d82	-0.0900221
48	0x3d9e5daa	0.07732709
49	0xbd577217	-0.05259904
50	0xbe30216b	-0.17200248
51	0x3e9928b2	0.2991386
52	0x3bd96db4	0.006635392
53	0xbcab5414	-0.020914115
54	0x3de51d7d	0.11187265
55	0xbd8a2b2e	-0.06746517
56	0xbe13fa8d	-0.14451046
57	0xbe2c8da2	-0.16850904
58	0x3cfcc276	0.030854445
59	0xbd214c05	-0.03937914
60	0xbc719577	-0.014745108
61	0x3d2fe1a9	0.042939816
62	0x3d88a870	0.06672752
63	0xbdcddbe8	-0.100517094

fc3.weight f4 [4, 64]
0	0xbe8294db	-0.25504193
1	0x3e9df4f5	0.3085095
2	0x3d93ecad	0.07222877
3	0xbeaeed37	-0.34165356
4	0x3f070db3	0.5275528
5	0x3edba4ba	0.42899114
6	0x3e3de491	0.18544222
7	0x3b85c40f	0.00408221
8	0x3e1e3467	0.15449677
9	0x3e2bfbe2	0.16795304
10	0x3e9694ff	0.2941055
11	0x3e3ec65c	0.18630356
12	0x3e1b02af	0.15137742
13	0x3c824472	0.015901778
14	0xbe25b85d	-0.1618361
15	0xbbf0bcc3	-0.007346721
16	0xbd5c8cc3	-0.05384518
17	0xbb71213f	-0.0036793498
18	0xbced1de1	-0.028944911
19	0x3e84b7e6	0.25921553
20	0x3e037ea5	0.1284128
21	0x3e344b9a	0.17606965
22	0x3d3c49b1	0.045968715
23	0x3e336c13	0.17521696
24	0x3e56e39e	0.20985267
25	0xbd9ba84e	-0.07600461
26	0xbeaab750	-0.3334298
27	0xbe7e4212	-0.24829891
28	0x3cf4e595	0.02989463
29	0x3de3ffc2	0.11132766
30	0xbe7d5fd7	-0.24743591
31	0x3ed008b2	0.40631634
32	0x3d847d85	0.064692535
33	0x3e18c6fd	0.14919658
34	0x3d578cba	0.05262444
35	0x3e80982c	0.25116098
36	0x3d2a940f	0.041645106
37	0xbd44e793	-0.04807241
38	0x3dc8a08e	0.097962484
39	0xbdca33df	-0.09873175
40	0xbdeb1875	-0.11479274
41	0x3e3f9990	0.18710923
42	0x3e0e1155	0.13873799
43	0x3e9f2024	0.3107921
44	0x3e114891	0.14187838
45	0x3c8c7b98	0.017148778
46	0x3dc83761	0.09776188
47	0x3ecbc5e9	0.3979943
48	0xbc8033a5	-0.015649626
49	0x3e77a330	0.24183345
50	0xbe368cad	-0.17827101
51	0x3eed5cf1	0.4635997
52	0x3dfb748f	0.12278091
53	0x3e081418	0.13288915
54	0x3dbde7af	0.09272706
55	0x3dd3df1c	0.10345289
56	0xbd645219	-0.055742357
57	0x3e0cbd1f	0.13744019
58	0x3de1c682	0.110241905
59	0x3e745db4	0.2386387
60	0xbec79d31	-0.38987115
61	0x3f0495f1	0.5179129
62	0x3e13ff4b	0.14452855
63	0x3d301331	0.042987052
64	0x3db58072	0.088623896
65	0x3e806c14	0.25082457
66	0x3e2181f7	0.15772234
67	0xbeaf0b94	-0.3418852
68	0x3edbd9da	0.42939645
69	0x3e511d0a	0.20421234
70	0x3e844dfb	0.25840744
71	0x3d3b0f83	0.04566909
72	0x3e29304e	0.16522333
73	0x3e30d6da	0.1726946
74	0x3e4df272	0.20112017
75	0x3e9f89dc	0.31159866
76	0x3e06f802	0.13180545
77	0x3ea63345	0.3246099
78	0xbe0cf7e4	-0.13766438
79	0x3e330d91	0.17485644
80	0xbdb3b95a	-0.087755874
81	0x3d8d6f1b	0.06905957
82	0x3e3a9059	0.18219127
83	0x3e259199	0.16168822
84	0x3e07611b	0.13220637
85	0x3e5540a1	0.20825435
86	0x3d8f9c67	0.07012253
87	0x3e88176f	0.26580378
88	0x3ea2adef	0.31773326
89	0xbde8a796	-0.113600895
90	0x3dac471b	0.08412
91	0xbd0f8150	-0.03503543
92	0xbe6c6b06	-0.23087701
93	0x3de442d4	0.11145559
94	0xbdf0d646	-0.117596194
95	0x3eddad0a	0.4329608
96	0xbada9e8a	-0.0016679328
97	0xbd0026fe	-0.031287186
98	0x3da31ac8	0.079640925
99	0x3e7db904	0.24777609
100	0x3dd1f400	0.102516174
101	0xbe0c8bac	-0.13725156
102	0x3e6d4399	0.23170318
103	0xbdb706b8	-0.089368284
104	0x3ce96d55	0.028494516
105	0x3e2e909f	0.17047356
106	0x3dc9a43d	0.09845779
107	0x3f06ee84	0.52707696
108	0x3e10bb90	0.1413405
109	0xbe29975d	-0.16561647
110	0x3db76893	0.08955493
111	0xbe61cf99	-0.22051848
112	0x3debd51c	0.11515257
113	0x3e6d6c69	0.23185886
114	0xbe622a60	-0.22086477
115	0x3ec3e9b8	0.3826425
116	0x3de5fc4d	0.11229763
117	0x3e19e3e4	0.1502834
118	0x3da02692	0.07819857
119	0x3e4b6f86	0.19866762
120	0xbf342278	-0.70365095
121	0xbeb865de	-0.36015218
122	0x3c6ebd17	0.01457145
123	0x3e04817c	0.1294002
124	0xbe1090f0	-0.1411779
125	0x3edd4610	0.43217516
126	0xbe251611	-0.16121699
127	0xbe1ccc0f	-0.15312217
128	0x3e69405f	0.22778462
129	0x3c5caf35	0.013469507
130	0x3e69a0ac	0.22815198
131	0x3c8d1a77	0.017224533
132	0x3ed239e3	0.4105979
133	0x3ebea6bb	0.3723658
134	0x3cd2e609	0.025744455
135	0x3e024b3c	0.12724012
136	0x3dbee893	0.09321704
137	0x3e267c55	0.16258366
138	0x3d35dddb	0.04440103
139	0x3e82c917	0.25544044
140	0x3dff92ce	0.12479173
141	0xbf153c25	-0.582949
142	0x3deb2d9a	0.11483307
143	0x3ea4e708	0.32207513
144	0x3ee07c24	0.43844712
145	0xbe366a1f	-0.1781392
146	0xbe72024a	-0.23633686
147	0x3d2a69da	0.041604854
148	0x3dc9e755	0.09858576
149	0x3e735c16	0.23765597
150	0xbe77c05d	-0.24194475
151	0x3eba7962	0.36420733
152	0x3f1418d4	0.57850385
153	0xbecb23a0	-0.39675617
154	0xbe7ab2c8	-0.24482262
155	0xbe549db4	-0.20763284
156	0x3e398899	0.18118514
157	0x3e3a7ce9	0.18211712
158	0xbe1b3c8f	-0.1515982
159	0x3d0fd49b	0.035114866
160	0xbd400cbe	-0.046887152
161	0x3d905634	0.07047692
162	0x3e6d9b81	0.23203851
163	0x3e53e934	0.20694429
164	0x3e03deeb	0.12878005
165	0xbeffe4b5	-0.49979177
166	0xbe3dab58	-0.18522394
167	0x3ec91d27	0.39280054
168	0xbe0cd501	-0.1375313
169	0x3e3eb145	0.1862231
170	0x3e3ca305	0.18421562
171	0x3f11deac	0.56980395
172	0xbd0e1e59	-0.03469691
173	0xbe6ab96e	-0.22922298
174	0x3e5df9b3	0.21677284
175	0x3d492571	0.049107973
176	0x3e1ca9c1	0.15299131
177	0x3e502c88	0.20329487
178	0xbe2c818c	-0.16846293
179	0x3ebcf793	0.36907634
180	0x3c939727	0.018016411
181	0xbe18be06	-0.14916238
182	0x3e2564d1	0.1615174
183	0x3ef33cda	0.47507364
184	0xbe3fbb02	-0.18723682
185	0xbed1cc66	-0.40976256
186	0x3e2d1377	0.16901956
187	0x3dec1e39	0.11529202
188	0xbe860892	-0.26178414
189	0x3e861976	0.261913
190	0xbda692f1	-0.081334956
191	0xbe6a09a5	-0.22855242
192	0x3d7e40e7	0.062073614
193	0x3e0aaca6	0.13542423
194	0x3e89ec89	0.26938275
195	0xbe84a676	-0.2590825
196	0x3e27052c	0.16310567
197	0x3d40d3fb	0.04707716
198	0x3b57e035	0.0032940034
199	0x3e578a89	0.2104894
200	0x3de54127	0.111940674
201	0x3e2d4282	0.16919902
202	0x3ee70f33	0.45128784
203	0x3e273d6b	0.16332023
204	0x3e4b94ba	0.19880953
205	0x3d9e1fa9	0.077208824
206	0xbe3030a8	-0.17206061
207	0xbdcfbdd2	-0.10143627
208	0x3d6020b3	0.054718684
209	0x3de98e81	0.114041336
210	0x3ee0e18a	0.43922073
211	0x3dcf55d1	0.1012379
212	0x3d8d9e94	0.06915012
213	0x3e7ebeb4	0.24877435
214	0xbe0a1428	-0.13484251
215	0x3eac5600	0.33659363
216	0x3ebc7254	0.36805975
217	0xbd74b430	-0.059742153
218	0xbd9a68b9	-0.075395055
219	0x3ce8637e	0.028367754
220	0x3f0ee53a	0.5581852
221	0x3d8776df	0.0661447
222	0xbebc3065	-0.36755672
223	0x3efb70d4	0.4910952
224	0xbea79f7f	-0.32738873
225	0x3dab9a4d	0.0837904
226	0xbd99bbe6	-0.07506542
227	0x3edab641	0.42717174
228	0xbe82687f	-0.2547035
229	0x3e6fe13f	0.23425768
230	0x3ed86a51	0.42268613
231	0x3e0e882e	0.13919136
232	0xbeefa95e	-0.46808904
233	0x3e4de8b1	0.20108296
234	0x3e449c77	0.19200312
235	0xbe9ff050	-0.3123803
236	0x3e3797eb	0.17929046
237	0xbeaf52f1	-0.34242967
238	0x3da063ee	0.0783156
239	0x3e9df3c7	0.3085005
240	0x3e2934a5	0.16523989
241	0x3e1aec3c	0.15129179
242	0x3d35f0df	0.044419166
243	0x3e8e8c9b	0.27841648
244	0x3e7b6d26	0.24553356
245	0x3eead4c7	0.4586546
246	0x3df1f7af	0.1181482
247	0x3ecfb685	0.4056894
248	0xbcaacbd0	-0.020849138
249	0xbe456c1a	-0.19279519
250	0x3e2d70e2	0.16937593
251	0x3dc54c1e	0.09633659
252	0xbe986485	-0.2976419
253	0x3e5e5648	0.21712601
254	0xbdfcffe3	-0.12353494
255	0xbd032c8c	-0.032024905

fc3.bias f4 [4]
0	0x3e8768f2	0.26447254
1	0x3e907c51	0.28219846
2	0x3e619f07	0.2203332
3	0x3e3c7b97	0.18406521
